…
Setting `pad_token_id` to `eos_token_id`:None for open-end generation.
Setting `pad_token_id` to `eos_token_id`:None for open-end generation.
Setting `pad_token_id` to `eos_token_id`:None for open-end generation.
Setting `pad_token_id` to `eos_token_id`:None for open-end generation.
Setting `pad_token_id` to `eos_token_id`:None for open-end generation.
Setting `pad_token_id` to `eos_token_id`:None for open-end generation.
Setting `pad_token_id` to `eos_token_id`:None for open-end generation.
Setting `pad_token_id` to `eos_token_id`:None for open-end generation.
Model Name:  MistralForCausalLM(
  (model): MistralModel(
    (embed_tokens): Embedding(32768, 4096)
    (layers): ModuleList(
      (0-31): 32 x MistralDecoderLayer(
        (self_attn): MistralAttention(
          (q_proj): Linear(in_features=4096, out_features=4096, bias=False)
          (k_proj): Linear(in_features=4096, out_features=1024, bias=False)
          (v_proj): Linear(in_features=4096, out_features=1024, bias=False)
          (o_proj): Linear(in_features=4096, out_features=4096, bias=False)
          (rotary_emb): MistralRotaryEmbedding()
        )
        (mlp): MistralMLP(
          (gate_proj): Linear(in_features=4096, out_features=14336, bias=False)
          (up_proj): Linear(in_features=4096, out_features=14336, bias=False)
          (down_proj): Linear(in_features=14336, out_features=4096, bias=False)
          (act_fn): SiLU()
        )
        (input_layernorm): MistralRMSNorm((4096,), eps=1e-05)
        (post_attention_layernorm): MistralRMSNorm((4096,), eps=1e-05)
      )
    )
    (norm): MistralRMSNorm((4096,), eps=1e-05)
  )
  (lm_head): Linear(in_features=4096, out_features=32768, bias=False)
)
Data Path:  /home/k/kduan/szn_workspace/SafetyEvaluation_AfterEdit/data/Eval_data/merged_data_2024-10-18.json
Output Path:  /home/k/kduan/szn_workspace/SafetyEvaluation_AfterEdit/safety_evaluate/mistral/baseline/
0  to  200
generating!
200  to  400
generating!
400  to  600
generating!
Model Name:  MistralForCausalLM(
  (model): MistralModel(
    (embed_tokens): Embedding(32768, 4096)
    (layers): ModuleList(
      (0-31): 32 x MistralDecoderLayer(
        (self_attn): MistralAttention(
          (q_proj): Linear(in_features=4096, out_features=4096, bias=False)
          (k_proj): Linear(in_features=4096, out_features=1024, bias=False)
          (v_proj): Linear(in_features=4096, out_features=1024, bias=False)
          (o_proj): Linear(in_features=4096, out_features=4096, bias=False)
          (rotary_emb): MistralRotaryEmbedding()
        )
        (mlp): MistralMLP(
          (gate_proj): Linear(in_features=4096, out_features=14336, bias=False)
          (up_proj): Linear(in_features=4096, out_features=14336, bias=False)
          (down_proj): Linear(in_features=14336, out_features=4096, bias=False)
          (act_fn): SiLU()
        )
        (input_layernorm): MistralRMSNorm((4096,), eps=1e-05)
        (post_attention_layernorm): MistralRMSNorm((4096,), eps=1e-05)
      )
    )
    (norm): MistralRMSNorm((4096,), eps=1e-05)
  )
  (lm_head): Linear(in_features=4096, out_features=32768, bias=False)
)
Data Path:  /home/k/kduan/szn_workspace/SafetyEvaluation_AfterEdit/data/Eval_data/merged_data_2024-10-18.json
Output Path:  /home/k/kduan/szn_workspace/SafetyEvaluation_AfterEdit/safety_evaluate/mistral/baseline/
0  to  200
generating!
Model Name:  MistralForCausalLM(
  (model): MistralModel(
    (embed_tokens): Embedding(32768, 4096)
    (layers): ModuleList(
      (0-31): 32 x MistralDecoderLayer(
        (self_attn): MistralAttention(
          (q_proj): Linear(in_features=4096, out_features=4096, bias=False)
          (k_proj): Linear(in_features=4096, out_features=1024, bias=False)
          (v_proj): Linear(in_features=4096, out_features=1024, bias=False)
          (o_proj): Linear(in_features=4096, out_features=4096, bias=False)
          (rotary_emb): MistralRotaryEmbedding()
        )
        (mlp): MistralMLP(
          (gate_proj): Linear(in_features=4096, out_features=14336, bias=False)
          (up_proj): Linear(in_features=4096, out_features=14336, bias=False)
          (down_proj): Linear(in_features=14336, out_features=4096, bias=False)
          (act_fn): SiLU()
        )
        (input_layernorm): MistralRMSNorm((4096,), eps=1e-05)
        (post_attention_layernorm): MistralRMSNorm((4096,), eps=1e-05)
      )
    )
    (norm): MistralRMSNorm((4096,), eps=1e-05)
  )
  (lm_head): Linear(in_features=4096, out_features=32768, bias=False)
)
Data Path:  /home/k/kduan/szn_workspace/SafetyEvaluation_AfterEdit/data/Eval_data/merged_data_2024-10-18.json
Output Path:  /home/k/kduan/szn_workspace/SafetyEvaluation_AfterEdit/safety_evaluate/mistral/baseline/
0  to  200
generating!
200  to  400
generating!
400  to  600
generating!
600  to  800
generating!
800  to  1000
generating!
1000  to  1200
…
